…
I1114 10:53:47.020262 157540 net.cpp:296] The NetState phase (0) differed from the phase (1) specified by a rule in layer accuracy
I1114 10:53:47.020584 157540 net.cpp:53] Initializing net from parameters: 
name: "CaffeNet"
state {
  phase: TRAIN
  level: 0
  stage: ""
}
layer {
  name: "data"
  type: "Data"
  top: "data"
  top: "label"
  include {
    phase: TRAIN
  }
  transform_param {
    mirror: true
    crop_size: 32
    mean_file: "floorplane_train_lmdb/imagenet_mean.binaryproto"
  }
  data_param {
    source: "floorplane_train_lmdb"
    batch_size: 256
    backend: LMDB
  }
}
layer {
  name: "conv1"
  type: "Convolution"
  bottom: "data"
  top: "conv1"
  param {
    lr_mult: 1
    decay_mult: 1
  }
  param {
    lr_mult: 2
    decay_mult: 0
  }
  convolution_param {
    num_output: 96
    kernel_size: 11
    stride: 4
    weight_filler {
      type: "gaussian"
      std: 0.01
    }
    bias_filler {
      type: "constant"
      value: 0
    }
  }
}
layer {
  name: "relu1"
  type: "ReLU"
  bottom: "conv1"
  top: "conv1"
}
layer {
  name: "pool1"
  type: "Pooling"
  bottom: "conv1"
  top: "pool1"
  pooling_param {
    pool: MAX
    kernel_size: 3
    stride: 2
  }
}
layer {
  name: "norm1"
  type: "LRN"
  bottom: "pool1"
  top: "norm1"
  lrn_param {
    local_size: 5
    alpha: 0.0001
    beta: 0.75
  }
}
layer {
  name: "conv2"
  type: "Convolution"
  bottom: "norm1"
  top: "conv2"
  param {
    lr_mult: 1
    decay_mult: 1
  }
  param {
    lr_mult: 2
    decay_mult: 0
  }
  convolution_param {
    num_output: 256
    pad: 2
    kernel_size: 5
    group: 2
    weight_filler {
      type: "gaussian"
      std: 0.01
    }
    bias_filler {
      type: "constant"
      value: 1
    }
  }
}
layer {
  name: "relu2"
  type: "ReLU"
  bottom: "conv2"
  top: "conv2"
}
layer {
  name: "pool2"
  type: "Pooling"
  bottom: "conv2"
  top: "pool2"
  pooling_param {
    pool: MAX
    kernel_size: 3
    stride: 2
  }
}
layer {
  name: "norm2"
  type: "LRN"
  bottom: "pool2"
  top: "norm2"
  lrn_param {
    local_size: 5
    alpha: 0.0001
    beta: 0.75
  }
}
layer {
  name: "fc6"
  type: "InnerProduct"
  bottom: "norm2"
  top: "fc6"
  param {
    lr_mult: 1
    decay_mult: 1
  }
  param {
    lr_mult: 2
    decay_mult: 0
  }
  inner_product_param {
    num_output: 4096
    weight_filler {
      type: "gaussian"
      std: 0.005
    }
    bias_filler {
      type: "constant"
      value: 1
    }
  }
}
layer {
  name: "relu6"
  type: "ReLU"
  bottom: "fc6"
  top: "fc6"
}
layer {
  name: "drop6"
  type: "Dropout"
  bottom: "fc6"
  top: "fc6"
  dropout_param {
    dropout_ratio: 0.5
  }
}
layer {
  name: "fc7"
  type: "InnerProduct"
  bottom: "fc6"
  top: "fc7"
  param {
    lr_mult: 1
    decay_mult: 1
  }
  param {
    lr_mult: 2
    decay_mult: 0
  }
  inner_product_param {
    num_output: 4096
    weight_filler {
      type: "gaussian"
      std: 0.005
    }
    bias_filler {
      type: "constant"
      value: 1
    }
  }
}
layer {
  name: "relu7"
  type: "ReLU"
  bottom: "fc7"
  top: "fc7"
}
layer {
  name: "drop7"
  type: "Dropout"
  bottom: "fc7"
  top: "fc7"
  dropout_param {
    dropout_ratio: 0.5
  }
}
layer {
  name: "fc8"
  type: "InnerProduct"
  bottom: "fc7"
  top: "fc8"
  param {
    lr_mult: 1
    decay_mult: 1
  }
  param {
    lr_mult: 2
    decay_mult: 0
  }
  inner_product_param {
    num_output: 2
    weight_filler {
      type: "gaussian"
      std: 0.01
    }
    bias_filler {
      type: "constant"
      value: 0
    }
  }
}
layer {
  name: "loss"
  type: "SoftmaxWithLoss"
  bottom: "fc8"
  bottom: "label"
  top: "loss"
}
I1114 10:53:47.020808 157540 layer_factory.hpp:77] Creating layer data
I1114 10:53:47.028056 157540 db_lmdb.cpp:35] Opened lmdb floorplane_train_lmdb
I1114 10:53:47.038523 157540 net.cpp:86] Creating Layer data
I1114 10:53:47.038554 157540 net.cpp:382] data -> data
I1114 10:53:47.038595 157540 net.cpp:382] data -> label
I1114 10:53:47.038641 157540 data_transformer.cpp:25] Loading mean file from: floorplane_train_lmdb/imagenet_mean.binaryproto
I1114 10:53:47.045066 157540 data_layer.cpp:45] output data size: 256,3,32,32
I1114 10:53:47.061741 157540 net.cpp:124] Setting up data
I1114 10:53:47.061779 157540 net.cpp:131] Top shape: 256 3 32 32 (786432)
I1114 10:53:47.061789 157540 net.cpp:131] Top shape: 256 (256)
I1114 10:53:47.061795 157540 net.cpp:139] Memory required for data: 3146752
I1114 10:53:47.061811 157540 layer_factory.hpp:77] Creating layer conv1
I1114 10:53:47.061858 157540 net.cpp:86] Creating Layer conv1
I1114 10:53:47.061872 157540 net.cpp:408] conv1 <- data
I1114 10:53:47.061895 157540 net.cpp:382] conv1 -> conv1
I1114 10:53:47.109953 157570 data_layer.cpp:73] Restarting data prefetching from start.
I1114 10:53:47.810667 157540 net.cpp:124] Setting up conv1
I1114 10:53:47.810714 157540 net.cpp:131] Top shape: 256 96 6 6 (884736)
I1114 10:53:47.810720 157540 net.cpp:139] Memory required for data: 6685696
I1114 10:53:47.810755 157540 layer_factory.hpp:77] Creating layer relu1
I1114 10:53:47.810775 157540 net.cpp:86] Creating Layer relu1
I1114 10:53:47.810781 157540 net.cpp:408] relu1 <- conv1
I1114 10:53:47.810791 157540 net.cpp:369] relu1 -> conv1 (in-place)
I1114 10:53:47.811332 157540 net.cpp:124] Setting up relu1
I1114 10:53:47.811353 157540 net.cpp:131] Top shape: 256 96 6 6 (884736)
I1114 10:53:47.811358 157540 net.cpp:139] Memory required for data: 10224640
I1114 10:53:47.811364 157540 layer_factory.hpp:77] Creating layer pool1
I1114 10:53:47.811378 157540 net.cpp:86] Creating Layer pool1
I1114 10:53:47.811383 157540 net.cpp:408] pool1 <- conv1
I1114 10:53:47.811393 157540 net.cpp:382] pool1 -> pool1
I1114 10:53:47.811482 157540 net.cpp:124] Setting up pool1
I1114 10:53:47.811496 157540 net.cpp:131] Top shape: 256 96 3 3 (221184)
I1114 10:53:47.811501 157540 net.cpp:139] Memory required for data: 11109376
I1114 10:53:47.811506 157540 layer_factory.hpp:77] Creating layer norm1
I1114 10:53:47.811523 157540 net.cpp:86] Creating Layer norm1
I1114 10:53:47.811530 157540 net.cpp:408] norm1 <- pool1
I1114 10:53:47.811538 157540 net.cpp:382] norm1 -> norm1
I1114 10:53:47.811853 157540 net.cpp:124] Setting up norm1
I1114 10:53:47.811872 157540 net.cpp:131] Top shape: 256 96 3 3 (221184)
I1114 10:53:47.811877 157540 net.cpp:139] Memory required for data: 11994112
I1114 10:53:47.811882 157540 layer_factory.hpp:77] Creating layer conv2
I1114 10:53:47.811902 157540 net.cpp:86] Creating Layer conv2
I1114 10:53:47.811908 157540 net.cpp:408] conv2 <- norm1
I1114 10:53:47.811918 157540 net.cpp:382] conv2 -> conv2
I1114 10:53:47.820365 157540 net.cpp:124] Setting up conv2
I1114 10:53:47.820389 157540 net.cpp:131] Top shape: 256 256 3 3 (589824)
I1114 10:53:47.820395 157540 net.cpp:139] Memory required for data: 14353408
I1114 10:53:47.820410 157540 layer_factory.hpp:77] Creating layer relu2
I1114 10:53:47.820425 157540 net.cpp:86] Creating Layer relu2
I1114 10:53:47.820430 157540 net.cpp:408] relu2 <- conv2
I1114 10:53:47.820438 157540 net.cpp:369] relu2 -> conv2 (in-place)
I1114 10:53:47.820793 157540 net.cpp:124] Setting up relu2
I1114 10:53:47.820812 157540 net.cpp:131] Top shape: 256 256 3 3 (589824)
I1114 10:53:47.820817 157540 net.cpp:139] Memory required for data: 16712704
I1114 10:53:47.820822 157540 layer_factory.hpp:77] Creating layer pool2
I1114 10:53:47.820832 157540 net.cpp:86] Creating Layer pool2
I1114 10:53:47.820837 157540 net.cpp:408] pool2 <- conv2
I1114 10:53:47.820849 157540 net.cpp:382] pool2 -> pool2
I1114 10:53:47.820920 157540 net.cpp:124] Setting up pool2
I1114 10:53:47.820971 157540 net.cpp:131] Top shape: 256 256 1 1 (65536)
I1114 10:53:47.820976 157540 net.cpp:139] Memory required for data: 16974848
I1114 10:53:47.820981 157540 layer_factory.hpp:77] Creating layer norm2
I1114 10:53:47.820999 157540 net.cpp:86] Creating Layer norm2
I1114 10:53:47.821007 157540 net.cpp:408] norm2 <- pool2
I1114 10:53:47.821015 157540 net.cpp:382] norm2 -> norm2
I1114 10:53:47.822218 157540 net.cpp:124] Setting up norm2
I1114 10:53:47.822242 157540 net.cpp:131] Top shape: 256 256 1 1 (65536)
I1114 10:53:47.822247 157540 net.cpp:139] Memory required for data: 17236992
I1114 10:53:47.822253 157540 layer_factory.hpp:77] Creating layer fc6
I1114 10:53:47.822266 157540 net.cpp:86] Creating Layer fc6
I1114 10:53:47.822273 157540 net.cpp:408] fc6 <- norm2
I1114 10:53:47.822285 157540 net.cpp:382] fc6 -> fc6
I1114 10:53:47.839038 157540 net.cpp:124] Setting up fc6
I1114 10:53:47.839082 157540 net.cpp:131] Top shape: 256 4096 (1048576)
I1114 10:53:47.839088 157540 net.cpp:139] Memory required for data: 21431296
I1114 10:53:47.839112 157540 layer_factory.hpp:77] Creating layer relu6
I1114 10:53:47.839126 157540 net.cpp:86] Creating Layer relu6
I1114 10:53:47.839133 157540 net.cpp:408] relu6 <- fc6
I1114 10:53:47.839144 157540 net.cpp:369] relu6 -> fc6 (in-place)
I1114 10:53:47.839890 157540 net.cpp:124] Setting up relu6
I1114 10:53:47.839910 157540 net.cpp:131] Top shape: 256 4096 (1048576)
I1114 10:53:47.839915 157540 net.cpp:139] Memory required for data: 25625600
I1114 10:53:47.839921 157540 layer_factory.hpp:77] Creating layer drop6
I1114 10:53:47.839947 157540 net.cpp:86] Creating Layer drop6
I1114 10:53:47.839953 157540 net.cpp:408] drop6 <- fc6
I1114 10:53:47.839962 157540 net.cpp:369] drop6 -> fc6 (in-place)
I1114 10:53:47.840021 157540 net.cpp:124] Setting up drop6
I1114 10:53:47.840035 157540 net.cpp:131] Top shape: 256 4096 (1048576)
I1114 10:53:47.840040 157540 net.cpp:139] Memory required for data: 29819904
I1114 10:53:47.840045 157540 layer_factory.hpp:77] Creating layer fc7
I1114 10:53:47.840059 157540 net.cpp:86] Creating Layer fc7
I1114 10:53:47.840064 157540 net.cpp:408] fc7 <- fc6
I1114 10:53:47.840075 157540 net.cpp:382] fc7 -> fc7
I1114 10:53:48.146294 157540 net.cpp:124] Setting up fc7
I1114 10:53:48.146340 157540 net.cpp:131] Top shape: 256 4096 (1048576)
I1114 10:53:48.146347 157540 net.cpp:139] Memory required for data: 34014208
I1114 10:53:48.146364 157540 layer_factory.hpp:77] Creating layer relu7
I1114 10:53:48.146380 157540 net.cpp:86] Creating Layer relu7
I1114 10:53:48.146387 157540 net.cpp:408] relu7 <- fc7
I1114 10:53:48.146402 157540 net.cpp:369] relu7 -> fc7 (in-place)
I1114 10:53:48.146841 157540 net.cpp:124] Setting up relu7
I1114 10:53:48.146859 157540 net.cpp:131] Top shape: 256 4096 (1048576)
I1114 10:53:48.146864 157540 net.cpp:139] Memory required for data: 38208512
I1114 10:53:48.146869 157540 layer_factory.hpp:77] Creating layer drop7
I1114 10:53:48.146881 157540 net.cpp:86] Creating Layer drop7
I1114 10:53:48.146888 157540 net.cpp:408] drop7 <- fc7
I1114 10:53:48.146898 157540 net.cpp:369] drop7 -> fc7 (in-place)
I1114 10:53:48.146945 157540 net.cpp:124] Setting up drop7
I1114 10:53:48.146961 157540 net.cpp:131] Top shape: 256 4096 (1048576)
I1114 10:53:48.146966 157540 net.cpp:139] Memory required for data: 42402816
I1114 10:53:48.146971 157540 layer_factory.hpp:77] Creating layer fc8
I1114 10:53:48.146984 157540 net.cpp:86] Creating Layer fc8
I1114 10:53:48.146991 157540 net.cpp:408] fc8 <- fc7
I1114 10:53:48.147003 157540 net.cpp:382] fc8 -> fc8
I1114 10:53:48.148336 157540 net.cpp:124] Setting up fc8
I1114 10:53:48.148357 157540 net.cpp:131] Top shape: 256 2 (512)
I1114 10:53:48.148362 157540 net.cpp:139] Memory required for data: 42404864
I1114 10:53:48.148382 157540 layer_factory.hpp:77] Creating layer loss
I1114 10:53:48.148404 157540 net.cpp:86] Creating Layer loss
I1114 10:53:48.148412 157540 net.cpp:408] loss <- fc8
I1114 10:53:48.148421 157540 net.cpp:408] loss <- label
I1114 10:53:48.148432 157540 net.cpp:382] loss -> loss
I1114 10:53:48.148492 157540 layer_factory.hpp:77] Creating layer loss
…
I1114 10:53:48.156236 157540 net.cpp:296] The NetState phase (1) differed from the phase (0) specified by a rule in layer data
I1114 10:53:48.156549 157540 net.cpp:53] Initializing net from parameters: 
name: "CaffeNet"
state {
  phase: TEST
}
layer {
  name: "data"
  type: "Data"
  top: "data"
  top: "label"
  include {
    phase: TEST
  }
  transform_param {
    mirror: false
    crop_size: 32
    mean_file: "floorplane_train_lmdb/imagenet_mean.binaryproto"
  }
  data_param {
    source: "floorplane_val_lmdb"
    batch_size: 50
    backend: LMDB
  }
}
layer {
  name: "conv1"
  type: "Convolution"
  bottom: "data"
  top: "conv1"
  param {
    lr_mult: 1
    decay_mult: 1
  }
  param {
    lr_mult: 2
    decay_mult: 0
  }
  convolution_param {
    num_output: 96
    kernel_size: 11
    stride: 4
    weight_filler {
      type: "gaussian"
      std: 0.01
    }
    bias_filler {
      type: "constant"
      value: 0
    }
  }
}
layer {
  name: "relu1"
  type: "ReLU"
  bottom: "conv1"
  top: "conv1"
}
layer {
  name: "pool1"
  type: "Pooling"
  bottom: "conv1"
  top: "pool1"
  pooling_param {
    pool: MAX
    kernel_size: 3
    stride: 2
  }
}
layer {
  name: "norm1"
  type: "LRN"
  bottom: "pool1"
  top: "norm1"
  lrn_param {
    local_size: 5
    alpha: 0.0001
    beta: 0.75
  }
}
layer {
  name: "conv2"
  type: "Convolution"
  bottom: "norm1"
  top: "conv2"
  param {
    lr_mult: 1
    decay_mult: 1
  }
  param {
    lr_mult: 2
    decay_mult: 0
  }
  convolution_param {
    num_output: 256
    pad: 2
    kernel_size: 5
    group: 2
    weight_filler {
      type: "gaussian"
      std: 0.01
    }
    bias_filler {
      type: "constant"
      value: 1
    }
  }
}
layer {
  name: "relu2"
  type: "ReLU"
  bottom: "conv2"
  top: "conv2"
}
layer {
  name: "pool2"
  type: "Pooling"
  bottom: "conv2"
  top: "pool2"
  pooling_param {
    pool: MAX
    kernel_size: 3
    stride: 2
  }
}
layer {
  name: "norm2"
  type: "LRN"
  bottom: "pool2"
  top: "norm2"
  lrn_param {
    local_size: 5
    alpha: 0.0001
    beta: 0.75
  }
}
layer {
  name: "fc6"
  type: "InnerProduct"
  bottom: "norm2"
  top: "fc6"
  param {
    lr_mult: 1
    decay_mult: 1
  }
  param {
    lr_mult: 2
    decay_mult: 0
  }
  inner_product_param {
    num_output: 4096
    weight_filler {
      type: "gaussian"
      std: 0.005
    }
    bias_filler {
      type: "constant"
      value: 1
    }
  }
}
layer {
  name: "relu6"
  type: "ReLU"
  bottom: "fc6"
  top: "fc6"
}
layer {
  name: "drop6"
  type: "Dropout"
  bottom: "fc6"
  top: "fc6"
  dropout_param {
    dropout_ratio: 0.5
  }
}
layer {
  name: "fc7"
  type: "InnerProduct"
  bottom: "fc6"
  top: "fc7"
  param {
    lr_mult: 1
    decay_mult: 1
  }
  param {
    lr_mult: 2
    decay_mult: 0
  }
  inner_product_param {
    num_output: 4096
    weight_filler {
      type: "gaussian"
      std: 0.005
    }
    bias_filler {
      type: "constant"
      value: 1
    }
  }
}
layer {
  name: "relu7"
  type: "ReLU"
  bottom: "fc7"
  top: "fc7"
}
layer {
  name: "drop7"
  type: "Dropout"
  bottom: "fc7"
  top: "fc7"
  dropout_param {
    dropout_ratio: 0.5
  }
}
layer {
  name: "fc8"
  type: "InnerProduct"
  bottom: "fc7"
  top: "fc8"
  param {
    lr_mult: 1
    decay_mult: 1
  }
  param {
    lr_mult: 2
    decay_mult: 0
  }
  inner_product_param {
    num_output: 2
    weight_filler {
      type: "gaussian"
      std: 0.01
    }
    bias_filler {
      type: "constant"
      value: 0
    }
  }
}
layer {
  name: "accuracy"
  type: "Accuracy"
  bottom: "fc8"
  bottom: "label"
  top: "accuracy"
  include {
    phase: TEST
  }
}
layer {
  name: "loss"
  type: "SoftmaxWithLoss"
  bottom: "fc8"
  bottom: "label"
  top: "loss"
}
I1114 10:53:48.156816 157540 layer_factory.hpp:77] Creating layer data
I1114 10:53:48.162828 157540 db_lmdb.cpp:35] Opened lmdb floorplane_val_lmdb
I1114 10:53:48.173293 157540 net.cpp:86] Creating Layer data
I1114 10:53:48.173326 157540 net.cpp:382] data -> data
I1114 10:53:48.173348 157540 net.cpp:382] data -> label
I1114 10:53:48.173374 157540 data_transformer.cpp:25] Loading mean file from: floorplane_train_lmdb/imagenet_mean.binaryproto
I1114 10:53:48.177091 157540 data_layer.cpp:45] output data size: 50,3,32,32
I1114 10:53:48.184528 157540 net.cpp:124] Setting up data
I1114 10:53:48.184559 157540 net.cpp:131] Top shape: 50 3 32 32 (153600)
I1114 10:53:48.184568 157540 net.cpp:131] Top shape: 50 (50)
I1114 10:53:48.184573 157540 net.cpp:139] Memory required for data: 614600
I1114 10:53:48.184587 157540 layer_factory.hpp:77] Creating layer label_data_1_split
I1114 10:53:48.184603 157540 net.cpp:86] Creating Layer label_data_1_split
I1114 10:53:48.184610 157540 net.cpp:408] label_data_1_split <- label
I1114 10:53:48.184625 157540 net.cpp:382] label_data_1_split -> label_data_1_split_0
I1114 10:53:48.184645 157540 net.cpp:382] label_data_1_split -> label_data_1_split_1
I1114 10:53:48.184774 157540 net.cpp:124] Setting up label_data_1_split
I1114 10:53:48.184793 157540 net.cpp:131] Top shape: 50 (50)
I1114 10:53:48.184800 157540 net.cpp:131] Top shape: 50 (50)
I1114 10:53:48.184805 157540 net.cpp:139] Memory required for data: 615000
I1114 10:53:48.184811 157540 layer_factory.hpp:77] Creating layer conv1
I1114 10:53:48.184835 157540 net.cpp:86] Creating Layer conv1
I1114 10:53:48.184842 157540 net.cpp:408] conv1 <- data
I1114 10:53:48.184859 157540 net.cpp:382] conv1 -> conv1
I1114 10:53:48.188315 157540 net.cpp:124] Setting up conv1
I1114 10:53:48.188341 157540 net.cpp:131] Top shape: 50 96 6 6 (172800)
I1114 10:53:48.188349 157540 net.cpp:139] Memory required for data: 1306200
I1114 10:53:48.188369 157540 layer_factory.hpp:77] Creating layer relu1
I1114 10:53:48.188380 157540 net.cpp:86] Creating Layer relu1
I1114 10:53:48.188385 157540 net.cpp:408] relu1 <- conv1
I1114 10:53:48.188397 157540 net.cpp:369] relu1 -> conv1 (in-place)
I1114 10:53:48.188993 157540 net.cpp:124] Setting up relu1
I1114 10:53:48.189013 157540 net.cpp:131] Top shape: 50 96 6 6 (172800)
I1114 10:53:48.189018 157540 net.cpp:139] Memory required for data: 1997400
I1114 10:53:48.189023 157540 layer_factory.hpp:77] Creating layer pool1
I1114 10:53:48.189040 157540 net.cpp:86] Creating Layer pool1
I1114 10:53:48.189049 157540 net.cpp:408] pool1 <- conv1
I1114 10:53:48.189059 157540 net.cpp:382] pool1 -> pool1
I1114 10:53:48.189167 157540 net.cpp:124] Setting up pool1
I1114 10:53:48.189180 157540 net.cpp:131] Top shape: 50 96 3 3 (43200)
I1114 10:53:48.189185 157540 net.cpp:139] Memory required for data: 2170200
I1114 10:53:48.189190 157540 layer_factory.hpp:77] Creating layer norm1
I1114 10:53:48.189206 157540 net.cpp:86] Creating Layer norm1
I1114 10:53:48.189213 157540 net.cpp:408] norm1 <- pool1
I1114 10:53:48.189220 157540 net.cpp:382] norm1 -> norm1
I1114 10:53:48.189983 157540 net.cpp:124] Setting up norm1
I1114 10:53:48.190007 157540 net.cpp:131] Top shape: 50 96 3 3 (43200)
I1114 10:53:48.190012 157540 net.cpp:139] Memory required for data: 2343000
I1114 10:53:48.190019 157540 layer_factory.hpp:77] Creating layer conv2
I1114 10:53:48.190039 157540 net.cpp:86] Creating Layer conv2
I1114 10:53:48.190048 157540 net.cpp:408] conv2 <- norm1
I1114 10:53:48.190064 157540 net.cpp:382] conv2 -> conv2
I1114 10:53:48.200065 157540 net.cpp:124] Setting up conv2
I1114 10:53:48.200088 157540 net.cpp:131] Top shape: 50 256 3 3 (115200)
I1114 10:53:48.200094 157540 net.cpp:139] Memory required for data: 2803800
I1114 10:53:48.200109 157540 layer_factory.hpp:77] Creating layer relu2
I1114 10:53:48.200119 157540 net.cpp:86] Creating Layer relu2
I1114 10:53:48.200125 157540 net.cpp:408] relu2 <- conv2
I1114 10:53:48.200134 157540 net.cpp:369] relu2 -> conv2 (in-place)
I1114 10:53:48.200476 157540 net.cpp:124] Setting up relu2
I1114 10:53:48.200496 157540 net.cpp:131] Top shape: 50 256 3 3 (115200)
I1114 10:53:48.200501 157540 net.cpp:139] Memory required for data: 3264600
I1114 10:53:48.200507 157540 layer_factory.hpp:77] Creating layer pool2
I1114 10:53:48.200521 157540 net.cpp:86] Creating Layer pool2
I1114 10:53:48.200527 157540 net.cpp:408] pool2 <- conv2
I1114 10:53:48.200536 157540 net.cpp:382] pool2 -> pool2
I1114 10:53:48.200618 157540 net.cpp:124] Setting up pool2
I1114 10:53:48.200633 157540 net.cpp:131] Top shape: 50 256 1 1 (12800)
I1114 10:53:48.200637 157540 net.cpp:139] Memory required for data: 3315800
I1114 10:53:48.200642 157540 layer_factory.hpp:77] Creating layer norm2
I1114 10:53:48.200651 157540 net.cpp:86] Creating Layer norm2
I1114 10:53:48.200656 157540 net.cpp:408] norm2 <- pool2
I1114 10:53:48.200666 157540 net.cpp:382] norm2 -> norm2
I1114 10:53:48.201347 157540 net.cpp:124] Setting up norm2
I1114 10:53:48.201370 157540 net.cpp:131] Top shape: 50 256 1 1 (12800)
I1114 10:53:48.201375 157540 net.cpp:139] Memory required for data: 3367000
I1114 10:53:48.201380 157540 layer_factory.hpp:77] Creating layer fc6
I1114 10:53:48.201390 157540 net.cpp:86] Creating Layer fc6
I1114 10:53:48.201396 157540 net.cpp:408] fc6 <- norm2
I1114 10:53:48.201408 157540 net.cpp:382] fc6 -> fc6
I1114 10:53:48.218519 157540 net.cpp:124] Setting up fc6
I1114 10:53:48.218538 157540 net.cpp:131] Top shape: 50 4096 (204800)
I1114 10:53:48.218544 157540 net.cpp:139] Memory required for data: 4186200
I1114 10:53:48.218559 157540 layer_factory.hpp:77] Creating layer relu6
I1114 10:53:48.218569 157540 net.cpp:86] Creating Layer relu6
I1114 10:53:48.218575 157540 net.cpp:408] relu6 <- fc6
I1114 10:53:48.218581 157540 net.cpp:369] relu6 -> fc6 (in-place)
I1114 10:53:48.219192 157540 net.cpp:124] Setting up relu6
I1114 10:53:48.219211 157540 net.cpp:131] Top shape: 50 4096 (204800)
I1114 10:53:48.219216 157540 net.cpp:139] Memory required for data: 5005400
I1114 10:53:48.219221 157540 layer_factory.hpp:77] Creating layer drop6
I1114 10:53:48.219230 157540 net.cpp:86] Creating Layer drop6
I1114 10:53:48.219235 157540 net.cpp:408] drop6 <- fc6
I1114 10:53:48.219246 157540 net.cpp:369] drop6 -> fc6 (in-place)
I1114 10:53:48.219295 157540 net.cpp:124] Setting up drop6
I1114 10:53:48.219306 157540 net.cpp:131] Top shape: 50 4096 (204800)
I1114 10:53:48.219311 157540 net.cpp:139] Memory required for data: 5824600
I1114 10:53:48.219316 157540 layer_factory.hpp:77] Creating layer fc7
I1114 10:53:48.219327 157540 net.cpp:86] Creating Layer fc7
I1114 10:53:48.219332 157540 net.cpp:408] fc7 <- fc6
I1114 10:53:48.219342 157540 net.cpp:382] fc7 -> fc7
I1114 10:53:48.489125 157540 net.cpp:124] Setting up fc7
I1114 10:53:48.489169 157540 net.cpp:131] Top shape: 50 4096 (204800)
I1114 10:53:48.489176 157540 net.cpp:139] Memory required for data: 6643800
I1114 10:53:48.489190 157540 layer_factory.hpp:77] Creating layer relu7
I1114 10:53:48.489204 157540 net.cpp:86] Creating Layer relu7
I1114 10:53:48.489210 157540 net.cpp:408] relu7 <- fc7
I1114 10:53:48.489219 157540 net.cpp:369] relu7 -> fc7 (in-place)
I1114 10:53:48.490041 157540 net.cpp:124] Setting up relu7
I1114 10:53:48.490061 157540 net.cpp:131] Top shape: 50 4096 (204800)
I1114 10:53:48.490065 157540 net.cpp:139] Memory required for data: 7463000
I1114 10:53:48.490070 157540 layer_factory.hpp:77] Creating layer drop7
I1114 10:53:48.490082 157540 net.cpp:86] Creating Layer drop7
I1114 10:53:48.490087 157540 net.cpp:408] drop7 <- fc7
I1114 10:53:48.490097 157540 net.cpp:369] drop7 -> fc7 (in-place)
I1114 10:53:48.490144 157540 net.cpp:124] Setting up drop7
I1114 10:53:48.490155 157540 net.cpp:131] Top shape: 50 4096 (204800)
I1114 10:53:48.490160 157540 net.cpp:139] Memory required for data: 8282200
I1114 10:53:48.490164 157540 layer_factory.hpp:77] Creating layer fc8
I1114 10:53:48.490186 157540 net.cpp:86] Creating Layer fc8
I1114 10:53:48.490193 157540 net.cpp:408] fc8 <- fc7
I1114 10:53:48.490201 157540 net.cpp:382] fc8 -> fc8
I1114 10:53:48.490505 157540 net.cpp:124] Setting up fc8
I1114 10:53:48.490517 157540 net.cpp:131] Top shape: 50 2 (100)
I1114 10:53:48.490521 157540 net.cpp:139] Memory required for data: 8282600
I1114 10:53:48.490538 157540 layer_factory.hpp:77] Creating layer fc8_fc8_0_split
I1114 10:53:48.490551 157540 net.cpp:86] Creating Layer fc8_fc8_0_split
I1114 10:53:48.490556 157540 net.cpp:408] fc8_fc8_0_split <- fc8
I1114 10:53:48.490566 157540 net.cpp:382] fc8_fc8_0_split -> fc8_fc8_0_split_0
I1114 10:53:48.490576 157540 net.cpp:382] fc8_fc8_0_split -> fc8_fc8_0_split_1
I1114 10:53:48.490648 157540 net.cpp:124] Setting up fc8_fc8_0_split
I1114 10:53:48.490659 157540 net.cpp:131] Top shape: 50 2 (100)
I1114 10:53:48.490664 157540 net.cpp:131] Top shape: 50 2 (100)
I1114 10:53:48.490669 157540 net.cpp:139] Memory required for data: 8283400
I1114 10:53:48.490672 157540 layer_factory.hpp:77] Creating layer accuracy
I1114 10:53:48.490682 157540 net.cpp:86] Creating Layer accuracy
I1114 10:53:48.490686 157540 net.cpp:408] accuracy <- fc8_fc8_0_split_0
I1114 10:53:48.490692 157540 net.cpp:408] accuracy <- label_data_1_split_0
I1114 10:53:48.490703 157540 net.cpp:382] accuracy -> accuracy
…
